experiments/PPO_M/checkpoints/ep_best.pth (torch_old, 21138 bytes, 6 tensors)

input_layer.weight f4 [64, 8]
0	0x3f5b3aec	0.8563678
1	0xbeec45c4	-0.46146977
2	0x3fd32ef1	1.64987
3	0xbf45406d	-0.7705143
4	0x3e3a2082	0.18176463
5	0xbe890d65	-0.26768032
6	0x3eb5bf54	0.35497534
7	0x3f86a399	1.0518676
8	0xbf408d13	-0.7521526
9	0xbec67ef3	-0.3876873
10	0xbf3e496d	-0.7433079
11	0x3f92b2d1	1.146082
12	0x3f795e28	0.97409296
13	0x4008d4cc	2.137988
14	0x3f467c81	0.7753373
15	0xbee8fa74	-0.4550358
16	0xbdd2e55b	-0.10297652
17	0x3f151494	0.58234525
18	0x3e986a6a	0.29768687
19	0xbfc4cc74	-1.5374894
20	0x3e528435	0.20558245
21	0x3e5569e1	0.20841171
22	0xbe814945	-0.25251213
23	0xbeb52584	-0.35380185
24	0x3f98abf4	1.1927476
25	0x3ec882eb	0.39162382
26	0x3f415bcb	0.7553069
27	0xbf3d9c3e	-0.7406653
28	0x3f88e204	1.0693974
29	0xc00682c8	-2.1017323
30	0xbef04f02	-0.46935278
31	0x3e8361d7	0.25660583
32	0x3fb1d0b0	1.3891811
33	0xbf3aaddf	-0.72921556
34	0x3f6518c1	0.89490896
35	0xbeeb7964	-0.4599105
36	0x3fa615e5	1.2975432
37	0x3e8160d8	0.25269198
38	0xbef4afd9	-0.4779041
39	0x3f6e3fc1	0.9306603
40	0xbe3d4479	-0.18483151
41	0xbf5e5b2a	-0.86857855
42	0xbe9f90d9	-0.31165197
43	0xc00afcf9	-2.1716902
44	0x3e1c656f	0.15273069
45	0x3ca8ca81	0.020604374
46	0x3dc23bea	0.09484084
47	0x3f43a7b9	0.764278
48	0x3f3976b0	0.7244673
49	0xbf138fd9	-0.5764137
50	0x3fdec356	1.7403362
51	0x3c111628	0.00885538
52	0xbf88a932	-1.0676634
53	0xbe382c1d	-0.17985578
54	0xbe83d769	-0.25750282
55	0x3bb817c9	0.00561807
56	0x3f7b8bee	0.9826039
57	0x3f14c65d	0.5811518
58	0x3f875227	1.0571946
59	0x3fb9c31a	1.4512665
60	0xbf6ffde2	-0.9374677
61	0xbfb33092	-1.3999197
62	0xbc3e5c7e	-0.011618732
63	0x3e89469b	0.2681168
64	0x3f680ced	0.90644723
65	0xbf3298c7	-0.6976437
66	0x3f2e0aba	0.6798512
67	0xbf9ffcb7	-1.2498997
68	0x3ec5a292	0.38600594
69	0xbd376672	-0.044775434
70	0xbe23956a	-0.15974966
71	0x3f75c881	0.9600907
72	0xbe8becd6	-0.2732913
73	0xbf18ccb1	-0.59687334
74	0xbede021f	-0.43360993
75	0xbf94eb6f	-1.1634349
76	0x400b4f35	2.1767094
77	0x3f7e512d	0.99342614
78	0x3e0c98cd	0.13730164
79	0xbe6be347	-0.23035918
80	0xbd2e9a59	-0.042627666
81	0x3ea2543a	0.31704885
82	0xbef1318a	-0.47108108
83	0x401858df	2.3804243
84	0x3f71bf4a	0.9443251
85	0x3f6aa3e4	0.9165633
86	0x3f3fb3f8	0.74883986
87	0xbe14dad5	-0.14536603
88	0x3fbcdf6a	1.475568
89	0xbe86c3ce	-0.26321262
90	0x3f7a5aa8	0.9779458
91	0x3ee68598	0.450238
92	0xbf89abba	-1.0755532
93	0xc003d3e3	-2.0598075
94	0x3dc3f7ce	0.09568749
95	0x3f80277a	1.0012047
96	0xbe8aa737	-0.270807
97	0x3e9e7cf8	0.3095472
98	0xbe110964	-0.14163738
99	0x3e5c5631	0.21517254
100	0x4090b9bf	4.522674
101	0x402a6b65	2.6628048
102	0x3efc97bf	0.49334523
103	0xbe685e41	-0.22692205
104	0xbc4201c7	-0.011841244
105	0xbf087f4b	-0.53319234
106	0xbf1747e5	-0.5909408
107	0xbff416df	-1.906948
108	0xbf19d0e1	-0.6008435
109	0xbf3685f5	-0.7129815
110	0xbeca1bf8	-0.39474463
111	0x3f11457b	0.56746644
112	0x3f1db382	0.6160203
113	0xbda8085e	-0.08204721
114	0x3f814ba7	1.0101212
115	0x4001e668	2.029688
116	0xbf493519	-0.78596646
117	0xbd0dcfea	-0.03462211
118	0xbdca0157	-0.09863537
119	0xbee96f42	-0.45592695
120	0x3e6a4c5f	0.22880696
121	0x3f737fce	0.9511689
122	0x3fac4521	1.3458596
123	0x3f6a1716	0.91441476
124	0x401b4355	2.4259846
125	0x3fc2e0a4	1.5224805
126	0x3e6b79fd	0.22995754
127	0xbecc2db1	-0.3987861
128	0xbd415956	-0.047204338
129	0xbdce222d	-0.10065112
130	0xbda1033d	-0.07861946
131	0xbda16288	-0.078801215
132	0x40a239ad	5.0695405
133	0x3fa50c99	1.289447
134	0x3e9460ab	0.28980002
135	0xbe01fbc9	-0.12693705
136	0x3f0e4b9b	0.55584115
137	0x3f27c961	0.65541655
138	0x3e6cdf67	0.23132096
139	0x40215fac	2.5214643
140	0x3d9d54b6	0.07682173
141	0xbe9a4f58	-0.3013866
142	0x3e936aca	0.2879241
143	0x3d37b733	0.044852447
144	0x3fc70aca	1.5550168
145	0x3d32155e	0.04347741
146	0x3f905299	1.1275207
147	0xbd51720c	-0.051134154
148	0x3f497dc3	0.7870752
149	0xc02f80f2	-2.7422452
150	0x3f331254	0.6994984
151	0x3eb63a92	0.3559156
152	0xbf26ae6e	-0.6510991
153	0xbf3215a9	-0.695643
154	0xbf8a3210	-1.0796528
155	0xc00b3098	-2.174841
156	0x3f8007a0	1.0002327
157	0x3d39f803	0.045402538
158	0x3d0e11cf	0.034684952
159	0x3df8be2d	0.12145648
160	0xbead6165	-0.3386337
161	0x3d4314c5	0.04762723
162	0xbe49fe54	-0.19725925
163	0x3f62d572	0.8860694
164	0x401a2b12	2.4088788
165	0x40214b15	2.5202076
166	0x3f07f18e	0.5310296
167	0xbe905559	-0.28190115
168	0x3cb3a273	0.021928048
169	0x3e0ede9c	0.13952106
170	0x3c264a33	0.010149526
171	0x3dec3a57	0.11534565
172	0x409ede36	4.9646254
173	0x401cf0b7	2.452192
174	0x3f3df773	0.742057
175	0xbe47d117	-0.19513355
176	0xbfb66ae5	-1.4251372
177	0x3f5b1fbc	0.855953
178	0xbfdd6996	-1.7297847
179	0x3e8974c6	0.26846904
180	0xbf5cb690	-0.8621607
181	0xbedb5dec	-0.42845094
182	0x3f2cb797	0.67467636
183	0xbf09f52d	-0.53889734
184	0xbb9169e9	-0.0044376743
185	0x3f52dc50	0.8236742
186	0x3eca2470	0.39480925
187	0x40058183	2.0860298
188	0x3e9bfc5d	0.30465975
189	0x3e1c3317	0.15253864
190	0x3da5b8b0	0.08091867
191	0xbf495e4c	-0.7865951
192	0x3ebcc82a	0.36871463
193	0xbe92e067	-0.2868683
194	0x3f3f5fcb	0.74755543
195	0x3fc33229	1.5249683
196	0xbfc31a26	-1.5242355
197	0x3e658b7b	0.22416489
198	0xbe8b41ad	-0.27198544
199	0xbf5baaf6	-0.8580774
200	0xbe2a4fad	-0.16631956
201	0xbf7cdd7b	-0.9877545
202	0xbf2728c4	-0.6529658
203	0xbfbeae92	-1.4897025
204	0x3f408927	0.7520928
205	0x3edb5eff	0.42845914
206	0x3eb13f9c	0.34618843
207	0x3f13c486	0.57721746
208	0xbef93dfc	-0.48680103
209	0xbea1cf89	-0.3160365
210	0xbe36baa0	-0.1784463
211	0xbdc6da9c	-0.09709665
212	0xbfe00a99	-1.7503234
213	0x3f71acb2	0.9440414
214	0xbf1962bc	-0.5991628
215	0x3fae8c15	1.36365
216	0xbce16fa6	-0.027519058
217	0xbe9cc26a	-0.30617076
218	0xbe3fc06c	-0.18725747
219	0xbf1f1dec	-0.6215503
220	0x408ad4cd	4.3384767
221	0x4005979a	2.087378
222	0x3e403139	0.18768777
223	0xbb5671d3	-0.0032721653
224	0xbe1f3fb0	-0.15551639
225	0x3eeeaf42	0.46618086
226	0xbf1eb8de	-0.62000835
227	0x3fdc33d6	1.7203319
228	0x3f7a86d6	0.97861993
229	0x3f37f2d2	0.7185489
230	0x3e982ad7	0.29720184
231	0xbea4b2f5	-0.32167783
232	0x3f66b7a0	0.9012394
233	0xbec155e7	-0.3776085
234	0x3fb4dc0a	1.412965
235	0xbf117f2e	-0.56834686
236	0xbfedbffd	-1.8574215
237	0xbf92f273	-1.148024
238	0xbf1c6a4b	-0.6109969
239	0x3eb95754	0.3619944
240	0xbe57fae3	-0.210918
241	0x3df67e46	0.120358035
242	0xbf2c9a2f	-0.67422765
243	0x3fce33d9	1.6109573
244	0x3fc16e76	1.5111835
245	0x3fc3aa0e	1.5286272
246	0x3f31c093	0.6943447
247	0xbe481461	-0.19539024
248	0xbf4e52cd	-0.80595094
249	0x3dde54a5	0.108559884
250	0xbfb45375	-1.4087969
251	0x3f2eeae6	0.68327177
252	0x3fda3bee	1.7049539
253	0x3fed3153	1.8530678
254	0x3e11f972	0.14255312
255	0xbdee59e7	-0.11638241

input_layer.bias f4 [64]
0	0xbedc95e2	-0.43083102
1	0x3eddaabb	0.4329432
2	0xbe9562a7	-0.29176828
3	0xbed5af8e	-0.417355
4	0xbebd1d61	-0.36936477
5	0xbe88cbcf	-0.26717994
6	0xbbcb2dc5	-0.0062005245
7	0x3e98f02c	0.29870737
8	0xbeb0ec5e	-0.34555334
9	0xbde5d254	-0.112217575
10	0x3e82653d	0.25467864
11	0x3e03399a	0.12814942
12	0x3d15ed61	0.036603335
13	0xbf03128a	-0.51200163
14	0x3e36527b	0.17804901
15	0x3eaa3950	0.3324685
16	0x3cc6b41d	0.024255807
17	0x3e313f6d	0.17309351
18	0xbe43ef1c	-0.19134182
19	0xbe2c3d5d	-0.16820283
20	0x3e861b2d	0.26192608
21	0x3df29c8e	0.11846267
22	0x3ed4caac	0.41560876
23	0x3ecd7162	0.40125567
24	0x3eeebc07	0.46627828
25	0x3e0134f7	0.1261786
26	0x3de94712	0.11390509
27	0xbdcb3775	-0.09922687
28	0x3ebe70ee	0.37195534
29	0xbc841165	-0.016121576
30	0x3e9cc966	0.30622405
31	0x3e078a61	0.13236381
32	0x3d88e1c2	0.06683685
33	0x3d0ed015	0.03486641
34	0xbd970a07	-0.073749594
35	0x3d89ba0d	0.067249395
36	0x3e269bf4	0.16270429
37	0xbd37a701	-0.044837
38	0x3e00ca25	0.12577112
39	0x3eaf4d9f	0.34238908
40	0xbe32afce	-0.17449877
41	0x3e5278ed	0.20553942
42	0x3dc95aab	0.09831747
43	0x3ef8f09b	0.48621067
44	0x3f3b2829	0.73108155
45	0x3e293726	0.16524944
46	0xbea676c2	-0.3251248
47	0x3dac18b0	0.08403146
48	0x3dcf159c	0.101115435
49	0xbe3f7b81	-0.18699457
50	0x3df1fb85	0.11815552
51	0xbe09ef6c	-0.13470238
52	0xbe40b726	-0.18819866
53	0x3e802f75	0.25036207
54	0xbe923b3e	-0.28560823
55	0xbe90af95	-0.28258958
56	0x3bcdb328	0.0062774606
57	0xbedcc574	-0.43119395
58	0xbe76ff4b	-0.24120824
59	0x3e5a008d	0.21289273
60	0x3e511a03	0.20420079
61	0x3dcffb1a	0.10155316
62	0xbd0c2eac	-0.034224197
63	0x3cbbaf0e	0.022910621

hidden_layers.0.weight f4 [64, 64]
0	0x3e1a59b1	0.15073277
1	0xbf8aebf9	-1.0853263
2	0x3f36161c	0.71127486
3	0x3f0fabf5	0.5612176
4	0xbf113ebd	-0.56736356
5	0x3f3c2247	0.73489803
6	0x3cf9a04a	0.03047194
7	0xbf340b0c	-0.70329356
8	0xbeceb531	-0.40372613
9	0xbcaf1088	-0.021370187
10	0xbfef266a	-1.8683598
11	0xbeb025af	-0.3440375
12	0xbefa96ce	-0.4894318
13	0x3f40ad22	0.7526418
14	0xbf9c8f2e	-1.2231195
15	0xbc60a5e8	-0.01371143
16	0xbebf7362	-0.37392718
17	0xbfbad153	-1.4595131
18	0x3efe62b1	0.4968467
19	0x3fb3a88e	1.4035814
20	0xbf8d54ca	-1.10415
21	0xbf46c78e	-0.77648246
22	0x3e1304df	0.14357327
23	0xbf0dac2a	-0.55340827
24	0xbf3e2609	-0.7427679
25	0xbf07a510	-0.5298624
26	0xbeba9ed1	-0.36449292
27	0xbee8b48e	-0.45450252
28	0xbf86de43	-1.0536579
29	0x3e1a0a27	0.15042935
30	0xbfdbf4b8	-1.7184057
31	0xbf991d7a	-1.196212
32	0xbf22b936	-0.6356386
33	0xbf6cead2	-0.9254581
34	0x3efca688	0.49345803
35	0xbe839a89	-0.25703838
36	0xbf1c56b5	-0.61069804
37	0xbf6a5a56	-0.9154409
38	0xbefea198	-0.4973266
39	0xbf0bedc4	-0.54659677
40	0x3f22ac39	0.6354404
41	0xbf7bd39b	-0.9836976
42	0xbf7c4a21	-0.9855061
43	0xbee19d27	-0.4406521
44	0xbfbb1323	-1.4615215
45	0xbeb28bd3	-0.34872302
46	0xbeff2ed3	-0.49840412
47	0xbd8768c3	-0.066117786
48	0xbffa75f8	-1.9567251
49	0x3f8415bd	1.0319134
50	0xbef96991	-0.48713353
51	0xbe84edec	-0.2596277
52	0xbebdb48d	-0.37051812
53	0xbf017aec	-0.5057819
54	0x3f6040f8	0.87599134
55	0xbe3dabf9	-0.18522634
56	0xbf81239e	-1.0088995
57	0x3f119b8c	0.5687797
58	0x3e9023af	0.28152224
59	0xbe5e7cba	-0.21727267
60	0xbf1082c2	-0.5644952
61	0xbf5c946a	-0.8616396
62	0x3d0592ec	0.03261082
63	0xbfa9b275	-1.3257586
64	0xbe0274cc	-0.12739867
65	0xbf1899c2	-0.59609616
66	0x3e2d50cf	0.16925357
67	0x3e9587b3	0.29205093
68	0xbf1c94af	-0.61164373
69	0x3e9a73a8	0.30166364
70	0xbf4865fc	-0.78280616
71	0x3f31c9c3	0.6944849
72	0x3d0f32b9	0.034960482
73	0xbf8023be	-1.0010908
74	0xbf175ea0	-0.5912876
75	0x3e9027ed	0.2815546
76	0xbf139eaa	-0.5766398
77	0x3f52fe75	0.8241952
78	0xbf636002	-0.8881837
79	0xbe8eff19	-0.27929
80	0xbfa562fc	-1.2920833
81	0x3e527f57	0.20556389
82	0x3d6ba6d7	0.057532158
83	0xbe00c97d	-0.12576862
84	0xbf53d41a	-0.82745516
85	0xbf2bd33a	-0.6711918
86	0x3f6a7165	0.91579276
87	0xbf3d90f6	-0.7404932
88	0xbec34bba	-0.38143712
89	0xbdffd760	-0.124922514
90	0x3f7a0e97	0.9767851
91	0xbfb6ac73	-1.4271377
92	0xbe105db9	-0.14098252
93	0xbe13f016	-0.14447054
94	0xbf41e41a	-0.7573868
95	0xbef7f32c	-0.48427713
96	0xbf2c417f	-0.6728744
97	0xbf63618f	-0.8882074
98	0xbf85420f	-1.0410784
99	0x3df82c18	0.12117785
100	0x3f01777b	0.5057294
101	0xbc1f6b8e	-0.009730233
102	0xbf6eff8c	-0.93358684
103	0xbe4a1ec2	-0.19738296
104	0xbfa40b80	-1.281601
105	0xbea2b825	-0.31781116
106	0xbe8554fe	-0.26041406
107	0x3edb072c	0.4277891
108	0xbf1f2616	-0.6216749
109	0xbef15c96	-0.4714095
110	0xbebc2dbe	-0.3675365
111	0x3eceb061	0.4036894
112	0xbf4f0cfa	-0.80879176
113	0xbf7d9117	-0.99049515
114	0xbdcdbbc4	-0.10045579
115	0xbfbea625	-1.4894453
116	0xbe2eabcb	-0.17057721
117	0xbe8cc87f	-0.27496716
118	0x3f65dae1	0.8978711
119	0xbe90037f	-0.28127667
120	0xbfa15ff4	-1.2607408
121	0x3eafd576	0.34342545
122	0x3fd2c6ec	1.6466956
123	0xbf34012d	-0.70314294
124	0xbf8ed674	-1.1159196
125	0xbf0dac86	-0.55341375
126	0xbecb42e3	-0.39699468
127	0xbf4fb9e8	-0.81143045
128	0xbcc99b94	-0.024610318
129	0x3cdd0c23	0.026983326
130	0x3e5cfe49	0.21581377
131	0x3d9ed068	0.07754594
132	0xbf13e0c1	-0.5776482
133	0x3dfd5708	0.123701155
134	0x3e3cb366	0.1842781
135	0xbde5d822	-0.11222865
136	0xbe751a88	-0.23935902
137	0x3d87ba6e	0.066273555
138	0xbe1f6f7e	-0.15569875
139	0x3e84ce7e	0.2593879
140	0xbddd0a9c	-0.10793039
141	0x3e162aad	0.14664717
142	0xbe0f3b75	-0.13987525
143	0xbd4a5fd6	-0.049407803
144	0xbe1932e7	-0.14960824
145	0xbecb4219	-0.39698866
146	0x3e92348e	0.2855572
147	0x3c2bcd9a	0.010486031
148	0x3df295fd	0.11845014
149	0xbe25fcaa	-0.16209665
150	0x3b73e79c	0.0037216907
151	0xbe5a6647	-0.21328078
152	0x3dec8f88	0.11550814
153	0x3d4e779c	0.050407037
154	0x3d4a3c67	0.04937401
155	0xbd94ad08	-0.072595656
156	0xbe09e6c7	-0.13466941
157	0x3d958a7d	0.07301805
158	0x3dbb2e92	0.09139742
159	0xbe2ca430	-0.16859508
160	0xbd9af7f5	-0.07566825
161	0xbcfecf3b	-0.031104675
162	0xbcc0890b	-0.023502847
163	0x3c17ffba	0.009277279
164	0xbe91a005	-0.28442398
165	0xbe25dd45	-0.16197689
166	0xbdfa8f06	-0.12234311
167	0x3d572da1	0.05253375
168	0x3ab711ce	0.0013967098
169	0x3e20e966	0.15714034
170	0xbdb95792	-0.09049906
171	0xbd012ec3	-0.031538736
172	0x3d89a2d5	0.06720511
173	0xbe8b5d58	-0.27219653
174	0xbde0a24a	-0.10968454
175	0xbb9cbdbc	-0.0047833603
176	0xbeb17b35	-0.34664312
177	0x3e0febc2	0.14054778
178	0x3e0e547b	0.13899414
179	0xbe303459	-0.17207469
180	0x3e860ada	0.26180154
181	0x3c8325c0	0.016009212
182	0xbdd5199f	-0.104052775
183	0xbee1338b	-0.43984637
184	0xbd478ca6	-0.048718117
185	0xbe008d11	-0.12553813
186	0x3e125285	0.14289291
187	0xbce10139	-0.027466403
188	0xbddafe8c	-0.10693082
189	0x3d73991f	0.0594722
190	0xbe077d05	-0.13231285
191	0xbec044f8	-0.3755262
192	0xbea15a4d	-0.31514207
193	0x3f84f09c	1.0385928
194	0xbea9d7ab	-0.33172354
195	0xbf261b8e	-0.64885795
196	0xbed6682c	-0.41876352
197	0xbe854ca8	-0.26035047
198	0xbe19160e	-0.1494982
199	0xbecaa5e6	-0.39579695
200	0xbed1ca2e	-0.40974563
201	0x3eab16ce	0.33415836
202	0x3f5c9483	0.8616411
203	0xbf90a03b	-1.1298898
204	0x3fd78fa9	1.6840717
205	0xbf1d928f	-0.61551756
206	0x3eaa7f71	0.33300355
207	0x3fb6208b	1.4228681
208	0x3f4994ba	0.78742564
209	0x3e641b9e	0.2227616
210	0xbf16e7d6	-0.58947504
211	0x3e12d6b7	0.1433972
212	0x3fa8e611	1.3195211
213	0x3fbb378a	1.4626324
214	0x3f1baffb	0.608154
215	0x3f0d241f	0.5513324
216	0xbe3dffbb	-0.18554585
217	0x3e72a0d0	0.23694158
218	0x3db46cd2	0.08809818
219	0x3f61dbd7	0.88226074
220	0x3f68299f	0.9068851
221	0xbfa63683	-1.2985386
222	0x3f2d0e43	0.67599887
223	0x3f2531dd	0.6452921
224	0x3eafaa65	0.34309688
225	0x3f464916	0.7745527
226	0x3f2e7d49	0.6815992
227	0xbfc876f2	-1.5661299
228	0xbf31887e	-0.69348896
229	0x3df07beb	0.117423855
230	0x3e6b8592	0.23000172
231	0xbd3c4f4b	-0.045974057
232	0x3f734ccd	0.95039064
233	0xbe3d9c89	-0.18516745
234	0x3e442206	0.19153604
235	0x3ead700d	0.3387455
236	0x3f0d463a	0.5518528
237	0x3f0596bf	0.52183145
238	0xbf051985	-0.51992065
239	0x3ee60aa4	0.44929993
240	0x3e00250b	0.12514131
241	0x3f30ef0e	0.6911477
242	0xbfa6d6a9	-1.3034259
243	0x3cad510a	0.021156806
244	0xbfa99c1c	-1.3250766
245	0x3f5a7dda	0.85348284
246	0xbeb8a424	-0.3606273
247	0xbb8e0910	-0.0043345764
248	0x3f90b292	1.1304495
249	0x3db52b4f	0.08846151
250	0xbea2784a	-0.31732398
251	0xbcf519fd	-0.029919619
252	0x3f79ec86	0.9762653
253	0x3fcb6b5d	1.589214
254	0x3fc8ac20	1.5677528
255	0x3f1bf162	0.60915196

hidden_layers.0.bias f4 [64]
0	0x3c5efb3e	0.0136097055
1	0x3ee567c8	0.4480574
2	0x3d5dd286	0.05415585
3	0x3f1f1334	0.62138677
4	0xbebcb6e3	-0.36858281
5	0x3dec84d8	0.115487754
6	0x3e1702a3	0.147471
7	0xbe86e8d3	-0.26349506
8	0x3f7aa893	0.97913474
9	0x3f671298	0.90262747
10	0xbdae1056	-0.084992096
11	0xbebefb9a	-0.37301332
12	0x3dab032a	0.08350213
13	0x3f383f82	0.71971905
14	0x3fa581f5	1.2930285
15	0xbe12d8cc	-0.14340514
16	0x3e2c2ac1	0.16813184
17	0x3ea4d651	0.3219476
18	0x3f02571b	0.5091416
19	0xbe462975	-0.19351752
20	0xbd6ba4fc	-0.05753039
21	0x3e1e959e	0.15486762
22	0xbdf5621d	-0.11981604
23	0x3e0a70ed	0.1351964
24	0x3e97354c	0.2953285
25	0xbed939bd	-0.42426863
26	0xbdb9eb0b	-0.09078034
27	0xbd34b697	-0.044119444
28	0x3e251dd3	0.16124658
29	0x3f4fbc19	0.8114639
30	0xbe15cf8f	-0.14629959
31	0xbf0871f5	-0.53298885
32	0x3f6ccfc9	0.92504555
33	0x3f21b928	0.6317315
34	0x3f929fd5	1.1455027
35	0xbe7742ec	-0.24146622
36	0x3da96ffc	0.082733124
37	0x3ec16ce8	0.377784
38	0x3e6d6c92	0.23185948
39	0x3dd89d10	0.10576832
40	0x3eebcc3d	0.4605426
41	0xbf3c7da4	-0.7362921
42	0xbe891655	-0.2677485
43	0x3cbb5ad2	0.022870455
44	0x3f6e31e7	0.93044895
45	0xbe0c8151	-0.13721205
46	0xbf525a91	-0.82169443
47	0x3efcb582	0.4935723
48	0x3eb8f8d8	0.36127353
49	0xbfa31190	-1.2739735
50	0xbea0e4f6	-0.31424683
51	0xbf6890ae	-0.90845764
52	0x3f8880ea	1.0664341
53	0x3e7b55dd	0.24544473
54	0x3ed3eb58	0.4139049
55	0xbe71784b	-0.23581044
56	0x3fb9b3e3	1.4508022
57	0x3f175aa7	0.591227
58	0x3de86795	0.11347882
59	0x3f582791	0.84435374
60	0x3ea4ad7c	0.32163608
61	0x3e1dfb8b	0.15427987
62	0x3f01b7b0	0.5067091
63	0x3e01b0c0	0.12665081

output_layer.weight f4 [4, 64]
0	0xbf786d00	-0.9704132
1	0x3f90c46e	1.1309946
2	0x3d98c0d7	0.07458656
3	0x3f7fe57f	0.9995956
4	0xbeb24fcb	-0.34826502
5	0xbda96e8e	-0.0827304
6	0xbecac4d2	-0.39603287
7	0xbe507a2b	-0.20359103
8	0x3f014193	0.50490683
9	0xbdb8d388	-0.090247214
10	0x3c86c949	0.016453402
11	0xbeb1cc9e	-0.34726423
12	0x3e8cecca	0.27524406
13	0xbde0e664	-0.109814435
14	0xbf2af378	-0.66777754
15	0x3d60d2da	0.054888584
16	0xbe0aa62f	-0.13539957
17	0xbc235ac9	-0.009970375
18	0xbea3b48b	-0.3197368
19	0xbe8caa21	-0.27473548
20	0x3eaf3437	0.34219524
21	0xbea85907	-0.32880422
22	0x3df50d05	0.11965374
23	0xbdb4ae2c	-0.08822283
24	0x3e417314	0.18891555
25	0x3cbf9b16	0.02338938
26	0xbf5b1518	-0.8557906
27	0xbd84e5c6	-0.06489138
28	0x3ddb3d45	0.107050456
29	0x3ee8c76e	0.45464653
30	0x3dc12f8a	0.094328955
31	0x3e662dd8	0.22478426
32	0xbf0ddd5a	-0.5541588
33	0xbdf7f813	-0.12107863
34	0xbc3585b1	-0.011079238
35	0x3ea8f48c	0.32999074
36	0x3dac7b62	0.08421971
37	0xbe7c3178	-0.24628246
38	0xbe3a9f2d	-0.18224783
39	0x3b7294d0	0.0037014969
40	0xbdda9273	-0.10672464
41	0xbe078ec1	-0.1323805
42	0xbde928b3	-0.11384716
43	0x3d2c88d7	0.04212269
44	0xbebd3ecd	-0.36961976
45	0xbd160dbf	-0.036634203
46	0xbee0ed97	-0.43931267
47	0x3ecf3259	0.404681
48	0xbc418dc2	-0.011813583
49	0xbf5519d7	-0.83242553
50	0xbdc573dd	-0.0964124
51	0xbe937012	-0.2879644
52	0x3dbfd1bf	0.09366178
53	0x3c75f228	0.015011348
54	0xbdda592d	-0.1066154
55	0xbe237c29	-0.15965332
56	0x3edad945	0.42743888
57	0xbc428595	-0.011872669
58	0x3e35ca87	0.1775304
59	0x3f2452a0	0.64188576
60	0xbea00744	-0.31255543
61	0x3e5a09c0	0.21292782
62	0xbebfb35c	-0.37441528
63	0xbe1bab96	-0.15202174
64	0x3decf68c	0.115704626
65	0xbe75faf1	-0.24021508
66	0x3e05ee01	0.13079073
67	0xbf0cb600	-0.5496521
68	0xbd2c832b	-0.04211728
69	0xbeb5d65c	-0.35515106
70	0x3e40a3ee	0.18812534
71	0xbef9d4f1	-0.48795274
72	0x3e36a211	0.17835261
73	0x3e6cbace	0.23118135
74	0xbdf09d03	-0.117486976
75	0xbcb17d97	-0.021666331
76	0xbed3d602	-0.41374213
77	0xbdbf06b2	-0.09327449
78	0xbf17e248	-0.5932965
79	0x3e98d4f0	0.29849958
80	0xbe93845a	-0.28811914
81	0x3d354a7e	0.044260494
82	0xbeb46906	-0.35236377
83	0xbe4ad216	-0.19806704
84	0x3d3fbc07	0.046810176
85	0x3eed0205	0.46290603
86	0x3cf06158	0.029343292
87	0x3ea60d10	0.3243184
88	0xbeca03dc	-0.3945607
89	0xbefd135d	-0.49428836
90	0x3d636a2d	0.05552118
91	0x3dc77ddc	0.09740803
92	0x3d95331b	0.07285138
93	0x3ed95bca	0.42452842
94	0x3c94718d	0.018120551
95	0xbecf5005	-0.40490738
96	0x3e97a119	0.29615095
97	0x3e92a955	0.28644815
98	0x3ec0ed10	0.37680864
99	0x3f14f462	0.581854
100	0x3e982362	0.29714495
101	0x3e349d62	0.17638162
102	0xbf138789	-0.57628685
103	0x3d59527a	0.05305717
104	0x3efd6443	0.49490556
105	0x3dd72a34	0.105060965
106	0x3eb0ac2e	0.34506363
107	0x3e990161	0.29883865
108	0x3f063a61	0.5243283
109	0xbe0537e5	-0.13009603
110	0x3c9d338f	0.019189624
111	0x3e56208b	0.20910852
112	0x3eb42f73	0.3519245
113	0x3ec2d9df	0.38056847
114	0xbe1ea252	-0.15491608
115	0xbe72d954	-0.23715717
116	0x3e19bd80	0.15013695
117	0x3da4cfd8	0.080474555
118	0x3dcfee08	0.10152823
119	0xbe83d579	-0.25748804
120	0x3f073034	0.5280793
121	0x3eb78b34	0.3584839
122	0x3e504450	0.20338559
123	0xbf0651f2	-0.5246879
124	0x3d9d720e	0.0768777
125	0x3ea3e41f	0.3200998
126	0xbeab8085	-0.3349649
127	0xbc4f5065	-0.012653445
128	0x3da6f0a2	0.08151366
129	0xbf472635	-0.77792674
130	0xbd1d6089	-0.03842214
131	0xbe9bb44d	-0.30410996
132	0x3ea7af3b	0.32750878
133	0x3e849274	0.25892985
134	0x3e97a515	0.29618135
135	0xbe16e60b	-0.14736192
136	0x3dfcecd4	0.12349859
137	0xbd692aa7	-0.056925442
138	0x3c825262	0.015908424
139	0x3ea225cf	0.3166947
140	0x3dbf0781	0.09327603
141	0xbdf7e964	-0.121050626
142	0x3f80a365	1.0049864
143	0xbd9d3d9d	-0.076777674
144	0x3e9c3cb7	0.30515072
145	0xbc3f7c41	-0.011687339
146	0x3f443aea	0.76652396
147	0x3e8817d0	0.26580667
148	0x3d03c9da	0.032174923
149	0xbe0f029b	-0.13965838
150	0x3c914662	0.017733756
151	0xb78a5720	-1.6491453e-05
152	0x3e18bf0d	0.1491663
153	0xbe9a84ab	-0.30179343
154	0x3e5e1161	0.21686317
155	0x3e0de38e	0.13856336
156	0xbd01c908	-0.03168586
157	0xbf8601fc	-1.0469356
158	0x3d40f197	0.047105398
159	0x3e5ec60c	0.21755236
160	0x3e2b3309	0.16718687
161	0xbe814dbc	-0.2525462
162	0x3e12ff86	0.14355287
163	0xbf42ef8e	-0.7614678
164	0x3da94f1a	0.082670406
165	0xbf120b30	-0.5704832
166	0x3ef7e121	0.48413947
167	0xbd49f8f0	-0.04930967
168	0xbec38b51	-0.38192227
169	0xbeb946c6	-0.36186808
170	0xbe497f5f	-0.19677494
171	0xbe9f7263	-0.31141958
172	0xbe86f9c5	-0.26362434
173	0x3de3c30e	0.11121188
174	0x3e2a5210	0.16632867
175	0xbd967205	-0.07345966
176	0xbe9534c9	-0.29141834
177	0xbd573c90	-0.05254799
178	0xbebb95b3	-0.3663765
179	0x3efe0aed	0.4961771
180	0xbea698c8	-0.32538438
181	0xbdc50962	-0.0962093
182	0xbd8a6007	-0.06756597
183	0xbd5bb618	-0.053640455
184	0xbe584de3	-0.21123461
185	0xbe818263	-0.2529479
186	0x3e1ea131	0.15491177
187	0xbf474c41	-0.7785073
188	0x3e2d0856	0.16897711
189	0xbe54c5c9	-0.20778574
190	0x3f11a957	0.5689902
191	0x3d29407d	0.041321266
192	0x3f5e555c	0.86849
193	0x3c103840	0.008802474
194	0x3d7d0cb9	0.06177971
195	0x3d797657	0.060903873
196	0x3de7a262	0.11310269
197	0x3f3688a7	0.71302265
198	0x3e67d121	0.2263837
199	0x3f81dfd6	1.0146434
200	0xbeea6ee9	-0.45787743
201	0xbee66ec3	-0.4500638
202	0x3d61f8b1	0.05516881
203	0x3e7cf19b	0.2470154
204	0x3ee037a0	0.43792439
205	0xbe9a9d8e	-0.3019833
206	0xbef0514f	-0.46937034
207	0xbe502f18	-0.20330465
208	0xbde1e31b	-0.11029645
209	0x3d448798	0.047980875
210	0xbeda9911	-0.42694905
211	0x3e75a496	0.23988566
212	0xbdc4b2b7	-0.096044
213	0xbe441ccb	-0.19151609
214	0x3da000ac	0.07812628
215	0xbe3f7606	-0.18697366
216	0xbe9e1d04	-0.30881512
217	0x3f4c3876	0.7977365
218	0x3f161f0f	0.5864114
219	0x3d8f37cd	0.06993065
220	0x3cf33e85	0.029692898
221	0x3e68bba3	0.22727828
222	0x3c6d0b5d	0.014468041
223	0x3da85b28	0.08220512
224	0xbea7e1e8	-0.3278954
225	0x3e1d839a	0.15382233
226	0xbf1d3336	-0.61406267
227	0xbdd209cf	-0.10255777
228	0xbe2f2b27	-0.17106305
229	0x3ef3515d	0.47523013
230	0x3ea43052	0.32068115
231	0x3db76c6d	0.089562275
232	0x3b364f1f	0.0027818156
233	0x3eaef301	0.34169772
234	0xbe3dc7c2	-0.18533233
235	0x3e1f5380	0.15559196
236	0xbea1ed9e	-0.316266
237	0xbd0b6fa9	-0.034042034
238	0xbe1fe3b4	-0.15614206
239	0xbd38005b	-0.044922214
240	0x3eb63edc	0.35594833
241	0x3f3a0bb4	0.7267411
242	0x3f0c6f20	0.54857063
243	0xbb4f12f0	-0.003159698
244	0x3d9893e5	0.07450084
245	0x3be38dd1	0.006944396
246	0xbdeb4307	-0.11487394
247	0xbd341a50	-0.043970406
248	0xbe826817	-0.2547004
249	0xbc3e9252	-0.011631565
250	0x3df107de	0.11769079
251	0x3f056506	0.52107275
252	0xbe876e40	-0.26451302
253	0xbd57ec75	-0.052715737
254	0xbedc10c2	-0.42981535
255	0xbd04f21c	-0.032457456

output_layer.bias f4 [4]
0	0x3e2c8b7f	0.16850089
1	0xbf149044	-0.5803263
2	0x3f9833a4	1.189076
3	0xbf1533b3	-0.5828201
